data.pth (torch, 6591 bytes, 6 tensors)

l1.weight f4 [8, 84]
-0.1522254 -0.2827044 0.54853255 0.26235154 0.053161416 0.4904137 -0.56850713 0.32130435
0.26342174 -0.9048414 0.5253966 0.2098432 0.3864404 -0.687374 -0.20356037 0.8928752
-0.1955857 0.30477023 -0.13701285 0.45520395 1.1205517 0.3626306 -0.5406289 -0.47476843
0.34798843 0.9206342 1.3222635 0.22269373 0.349544 0.7666162 0.5328643 -0.21238805
0.5483639 -0.19202052 0.7541167 0.5458742 0.5680014 0.058913805 0.4180958 0.38274375
0.44933856 0.34160095 0.09471973 0.090429716 0.4247816 -0.5684831 -0.016671943 -0.007989638
0.14203928 -0.10074565 0.94698846 0.5138504 0.034685638 0.08474299 0.68063354 0.3038824
0.7083788 0.65424913 0.324152 1.4090047 -0.7104665 -0.2144092 -0.32905585 0.45982367
1.0809921 -0.07707522 0.53024477 0.51227283 0.122984834 0.6414088 0.3427257 -0.5636222
-0.15416728 0.7264512 0.61543006 0.44454256 0.18647514 0.59603137 0.31049943 0.7179596
-0.082021 -0.65948385 0.024719818 0.66927856 0.4579476 -0.6322913 0.4318039 0.20176537
0.42309955 -0.31736043 0.2493157 0.16487099 0.16093686 -0.48166424 0.3609471 -0.13541058
0.15189044 0.012683366 0.93138736 0.35212204 0.76343274 -0.32651573 0.37198597 -0.29373035
0.47596034 0.5759908 -0.7088554 0.8137509 0.1903705 -0.7352217 0.7346693 0.35942012
-0.30471095 -0.07320425 -0.2885671 0.90973437 -0.50123876 0.17492227 0.46878937 -0.4921128
-0.5730391 1.2496585 -0.6154828 -0.105961144 0.2692505 -0.202018 1.1129504 0.31349975
0.55868256 0.37749872 0.91102654 1.1981379 0.53297865 0.028173568 -0.80200243 0.1888981
0.5684776 0.3902237 0.37249106 -0.034341957 0.4186158 0.28674322 -0.13110375 0.7747299
-0.9991273 0.8256093 0.7874783 -0.47019336 -1.0071859 0.65612966 0.5095114 -0.48447946
0.56493384 0.37255758 -0.20855036 -0.070499755 0.19844353 0.2519354 -0.12559642 0.35910076
0.3592957 0.54449797 0.62820673 0.52819836 0.35001573 0.45372662 0.23674434 0.5044749
-0.23923264 -0.17955412 -0.1098325 0.22901253 0.28803167 -0.2434406 0.70463306 0.13662656
0.06500292 -0.69790137 0.34512815 0.21586797 0.050762985 0.21038267 -0.6759628 0.12565504
0.7969334 0.23827092 -0.5304105 -0.3702975 0.083092205 -0.18374553 -0.8987009 1.2087877
0.13485226 0.8959275 1.0709459 1.1344879 0.31139976 0.89624166 -0.22825977 -0.6739524
-0.45793903 -0.13207226 -0.014262827 -0.45547125 -0.48842305 -0.688325 -0.58415836 0.09049423
0.0744857 0.31096214 1.1472787 1.1760314 -0.16414994 0.73810035 0.97816694 -0.68850434
0.65905166 -0.025702279 1.0049542 -0.21186939 -0.07475995 -0.045304213 -0.12298118 0.34156668
-0.0021852169 -0.28407538 -0.10585092 -0.022592325 -0.63828397 0.8542903 0.6164223 -0.4823361
0.95371485 -0.037829384 -0.07507235 0.7146806 -0.07227792 -0.06861846 0.22018887 -0.68497634
-0.22636075 0.0775304 -0.27402538 0.38206795 0.6960715 0.04294895 0.41687027 0.06077468
0.7340438 0.8068591 -0.7180518 -0.118795685 0.6227818 0.83987653 0.1782691 0.053665064
00000000: fae0 1bbe a2be 90be a16c 0c3f f152 863e
00000010: c9bf 593d 8117 fb3e af89 11bf 0182 a43e
00000020: 37df 863e b0a3 67bf 6480 063f 23e1 563e
00000030: 84db c53e bef7 2fbf 2172 50be 7893 643f
00000040: 9e47 48be d80a 9c3e 194d 0cbe 7e10 e93e
00000050: 3d6e 8f3f b8aa b93e a866 0abf d914 f3be
00000060: 8a2b b23e afae 6b3f ee3f a93f d309 643e
00000070: 6ef7 b23e f640 443f cb69 083f 417c 59be
00000080: 9461 0c3f 07a1 44be cb0d 413f 69be 0b3f
00000090: 8a68 113f 9a4f 713d a710 d63e fdf6 c33e
000000a0: b40f e63e 52e6 ae3e 6bfc c13d 3733 b93d
000000b0: f97c d93e 1c88 11bf 9993 88bc f8e6 02bc
000000c0: bf72 113e bc53 cebd d66d 723f b38b 033f
000000d0: 8712 0e3d bc8d ad3d 003e 2e3f 7996 9b3e
000000e0: 5058 353f df7c 273f 40f7 a53e 445a b43f
000000f0: 22e1 35bf 168e 5bbe 027a a8be 026e eb3e
00000100: f35d 8a3f 9dd9 9dbd 1fbe 073f 5024 033f
00000110: 79df fb3d 5e33 243f be79 af3e 8b49 10bf
00000120: 07de 1dbe b5f8 393f d38c 1d3f 159b e33e
00000130: 57f3 3e3e 8395 183f c8f9 9e3e 33cc 373f
00000140: a0fa a7bd efd3 28bf 3781 ca3c d755 2b3f
00000150: 1c78 ea3e d8dd 21bf 6715 dd3e 959b 4e3e
00000160: 81a0 d83e 117d a2be 9d4c 7f3e f1d3 283e
00000170: a2cc 243e b29c f6be 0fce b83e 12a9 0abe
00000180: 2b89 1b3e e5cd 4f3c 676f 6e3f 5749 b43e
00000190: 5470 433f 122d a7be f274 be3e d363 96be
000001a0: 13b1 f33e 2274 133f 8c77 35bf fb51 503f
000001b0: 7cf0 423e 7d37 3cbf 4a13 3c3f ea05 b83e
000001c0: 1303 9cbe 1cec 95bd 11bf 93be 5ae4 683f
000001d0: 2f51 00bf d31e 333e 2905 f03e 35f6 fbbe
000001e0: b1b2 12bf cff4 9f3f 4890 1dbf 2802 d9bd
000001f0: 34db 893e cedd 4ebe 2975 8e3f 0a83 a03e
00000200: d205 0f3f 8347 c13e 0939 693f 955c 993f
00000210: 4a71 083f 41cc e63c 0850 4dbf 816e 413e
00000220: bf87 113f 67cb c73e 26b7 be3e 27aa 0cbd
00000230: cf54 d63e 02d0 923e 1040 06be b354 463f
00000240: cfc6 7fbf 225b 533f 2e98 493f 2fbd f0be
00000250: 78eb 80bf 1df8 273f 576f 023f b10d f8be
00000260: 819f 103f debf be3e 3a8e 55be 2d62 90bd
00000270: c834 4b3e adfd 803e 599c 00be 0edc b73e
00000280: 9bf5 b73e 3864 0b3f 28d2 203f 0238 073f
00000290: 4335 b33e db4e e83e 1c6d 723e 4425 013f
000002a0: 67f9 74be 09dd 37be ddef e0bd 4382 6a3e
000002b0: e378 933e 7e48 79be d562 343f d5e7 0b3e
000002c0: 4020 853d aaa9 32bf a3b4 b03e 7e0c 5d3e
000002d0: d9ec 4f3d 8e6e 573e e60b 2dbf b7ab 003e
000002e0: d403 4c3f 4bfd 733e fcc8 07bf a297 bdbe
000002f0: 3f2c aa3d ca27 3cbe 4311 66bf 8eb9 9a3f
00000300: b616 0a3e 815b 653f c114 893f e636 913f
00000310: ca6f 9f3e 1870 653f eebc 69be 2588 2cbf
00000320: fc76 eabe f33d 07be a2ae 69bc 8733 e9be
00000330: 9612 fabe 1136 30bf 678b 15bf 0a55 b93d
00000340: f58b 983d 6e36 9f3e 07da 923f 3288 963f
00000350: ec16 28be 25f4 3c3f 2669 7a3f d241 30bf
00000360: 9cb7 283f 968d d2bc 57a2 803f 4af4 58be
00000370: bf1b 99bd e990 39bd 8fdd fbbd d4e1 ae3e
00000380: db35 0fbb 5472 91be 5ec8 d8bd 8a13 b9bc
00000390: 9466 23bf c5b2 5a3f dacd 1d3f c2f4 f6be
000003a0: a826 743f fcf2 1abd 88bf 99bd 4ff5 363f
000003b0: 7206 94bd d687 8cbd 3179 613e 9c5a 2fbf
000003c0: 1dcb 67be 42c8 9e3d 0e4d 8cbe 699e c33e
000003d0: be31 323f 3deb 2f3d 0570 d53e dfee 783d
000003e0: 4bea 3b3f 518e 4e3f 3ed2 37bf 274b f3bd
000003f0: a16e 1f3f 2602 573f 2d8c 363e e6cf 5b3d

l1.bias f4 [8]
1.2280554 1.0066135 0.6882406 1.0384923 0.72643435 0.72367406 0.7355819 0.77158797
00000000: eb30 9d3f b6d8 803f 8930 303f 51ed 843f
00000010: 9af7 393f b442 393f 184f 3c3f ca86 453f

l2.weight f4 [8, 8]
1.5842708 -0.571832 -0.058649685 0.116971806 -0.5943326 0.915427 -0.53415716 0.55095893
0.69756365 -1.6812613 -0.6401047 2.2956715 0.9645397 1.6591928 0.047977813 1.1181585
0.009465472 0.055357654 0.4823596 -1.1242738 1.9613304 1.2650719 1.792888 1.4931383
0.6573726 0.3355066 2.2915378 -0.6308138 1.0652076 -0.06478624 -0.04040932 0.1433113
1.6912584 1.2257829 1.489726 0.35529178 0.4559438 0.9461973 -1.294848 -1.5824966
0.31368223 0.3472741 0.9939563 0.21269819 1.2352682 0.54203135 -1.7091335 -1.2335843
0.06552742 -0.18263605 -0.21721563 0.19253552 -0.20087364 -0.037499107 -0.045560244 -0.22713958
1.787927 2.051737 -0.32843414 0.37403885 -1.5942856 -1.2520658 1.4684145 0.9919462
00000000: 63c9 ca3f 9563 12bf a73a 70bd ea8e ef3d
00000010: 2e26 18bf 6d59 6a3f 86be 08bf a50b 0d3f
00000020: 8893 323f 9233 d7bf e7dd 23bf 48ec 1240
00000030: 13ec 763f 6e60 d43f 6284 443d d11f 8f3f
00000040: 1115 1b3c b5be 623d d6f7 f63e 34e8 8fbf
00000050: e00c fb3f e0ed a13f 5b7d e53f 281f bf3f
00000060: 9249 283f 85c7 ab3e 8ea8 1240 037d 21bf
00000070: b958 883f a6ae 84bd 3e84 25bd 33c0 123e
00000080: 287b d83f 74e6 9c3f 57af be3f cee8 b53e
00000090: 7771 e93e fc39 723f 94bd a5bf 408f cabf
000000a0: f59a a03e e9cd b13e ec73 7e3f 8ecd 593e
000000b0: 451d 9e3f 91c2 0a3f e3c4 dabf 17e6 9dbf
000000c0: 3d33 863d f204 3bbe c66d 5ebe 0828 453e
000000d0: d2b1 4dbe aa98 19bd 619d 3abd 4797 68be
000000e0: cbda e43f a94f 0340 8528 a8be 0582 bf3e
000000f0: 8d11 ccbf b143 a0bf 02f5 bb3f 30f0 7d3f

l2.bias f4 [8]
-0.21756658 0.6111511 -0.51371825 -0.7982163 0.5808633 0.07728712 -0.35195535 1.5500274
00000000: c6c9 5ebe 6674 1c3f 0a83 03bf e757 4cbf
00000010: 75b3 143f b648 9e3d 7e33 b4be 4c67 c63f

l3.weight f4 [14, 8]
-2.8090858 0.50704086 0.74933594 -0.76156545 -1.6146648 -1.7559518 -0.060614545 -0.22191551
-1.5337152 -2.0427356 -1.139659 0.5863317 0.5118082 0.6428027 -0.011910495 -0.054213505
-1.053323 -1.6029794 0.103971474 -0.27114433 -1.6671317 -0.95258003 -0.28917992 1.0185705
0.571208 0.20254403 -0.13819225 -1.9509842 -1.9661018 -1.4386748 0.18892759 0.25097966
0.339505 -0.020167952 -0.55267084 -0.056092914 0.2189773 1.1437826 0.2484793 -1.4593657
-1.7147762 -0.6424089 0.6199079 0.11737863 0.42292315 -0.033964723 0.10763346 -0.95171255
0.28149992 0.2913248 0.23966028 0.2888768 -0.25483662 -1.6867324 -0.33269313 -0.9540555
-2.0743647 -1.2556455 0.8512474 0.7192531 -1.2860788 -2.6135237 0.23043972 -0.12078172
0.6345639 -1.4471843 -0.0052104993 0.34764057 -0.16592447 -2.9088702 0.102192394 0.21719843
-2.9193237 -2.4685373 -1.9779068 -1.6994 0.74292904 -2.8043168 0.10913106 1.2138634
1.0613495 0.5980028 -1.7693049 -1.4200982 0.42388114 -0.594017 -0.066372864 -0.71778923
0.81105 -1.234673 -1.8436227 -0.06456421 0.31123638 -1.1332492 -0.25404778 0.44602764
0.18021853 1.0189806 0.022267401 -1.3740441 -0.9872105 0.40713024 0.21169087 -1.85475
-2.7236264 0.8055904 -1.5554277 -1.1224269 -0.60842067 -2.3338034 -0.12264018 0.74203795
00000000: 10c8 33c0 6ecd 013f 7bd4 3f3f f4f5 42bf
00000010: 56ad cebf 07c3 e0bf f546 78bd d23d 63be
00000020: c850 c4bf 2ebc 02c0 59e0 91bf d619 163f
00000030: dd05 033f b88e 243f 3d24 43bc fb0e 5ebd
00000040: 4ad3 86bf 6e2e cdbf ffee d43d 6ed3 8abe
00000050: 9264 d5bf 49dc 73bf 640f 94be 8560 823f
00000060: b03a 123f b467 4f3e 4582 0dbe dab9 f9bf
00000070: 39a9 fbbf 7f26 b8bf 3c76 413e 6880 803e
00000080: 99d3 ad3e 4337 a5bc d67b 0dbf afc1 65bd
00000090: 963b 603e 7867 923f 5c71 7e3e 7fcc babf
000000a0: c97d dbbf e974 24bf 49b2 1e3f 3564 f03d
000000b0: 6289 d83e 981e 0bbd ee6e dc3d 6fa3 73bf
000000c0: c220 903e 8628 953e 8169 753e a9e7 933e
000000d0: f279 82be d9e6 d7bf c156 aabe fb3c 74bf
000000e0: 64c2 04c0 feb8 a0bf 59eb 593f f920 383f
000000f0: 3b9e a4bf f943 27c0 64f8 6b3e 685c f7bd
00000100: c872 223f 563d b9bf d6bc aabb f2fd b13e
00000110: 1be8 29be ee2a 3ac0 3f4a d13d 4469 5e3e
00000120: 33d6 3ac0 84fc 1dc0 0d2c fdbf f085 d9bf
00000130: 9930 3e3f ed79 33c0 1b80 df3d e05f 9b3f
00000140: 4dda 873f b616 193f 9578 e2bf c7c5 b5bf
00000150: f306 d93e 8011 18bf 7fee 87bd 09c1 37bf
00000160: f9a0 4f3f c409 9ebf d4fb ebbf 3e3a 84bd
00000170: 605a 9f3e 4f0e 91bf 8d12 82be bc5d e43e
00000180: 358b 383e f56d 823f 206a b63c ade0 afbf
00000190: d4b9 7cbf 6073 d03e 7ec5 583e 7368 edbf
000001a0: e54f 2ec0 2c3b 4e3f 4118 c7bf afab 8fbf
000001b0: 75c1 1bbf 095d 15c0 c62a fbbd 33f6 3d3f

l3.bias f4 [14]
-0.20557043 0.43161905 0.36022782 0.092756726 -0.33883122 -0.42617837 -0.6191803 0.22616577
-0.26159272 0.3618316 0.15299065 -0.19829138 0.13871717 0.4880795
00000000: 0e81 52be 2cfd dc3e c86f b83e 3df7 bd3d
00000010: 497b adbe 0d34 dabe 9a82 1ebf 0098 673e
00000020: 7bef 85be fe41 b93e 95a9 1c3e e50c 4bbe
00000030: e00b 0e3e 8ee5 f93e
